num_users: 880
num_items: 16450
num_product_groups: 13
num_color_groups: 49
{'sales_domain': SalesNN(
  (user_embedding_layer): Embedding(880, 16)
  (item_embedding_layer): Embedding(16450, 32)
  (relu): LeakyReLU(negative_slope=0.01)
  (encoder): Sequential(
    (0): Linear(in_features=50, out_features=128, bias=True)
    (1): Linear(in_features=128, out_features=32, bias=True)
  )
), 'customer_domain': CustomersNN(
  (relu): LeakyReLU(negative_slope=0.01)
  (encoder): Sequential(
    (0): Linear(in_features=2, out_features=5, bias=True)
  )
), 'product_domain': ProductsNN(
  (product_group_embedding_layer): Embedding(13, 8)
  (color_group_embedding_layer): Embedding(49, 16)
  (index_name_embedding_layer): Embedding(10, 6)
  (relu): LeakyReLU(negative_slope=0.01)
  (encoder): Sequential(
    (0): Linear(in_features=30, out_features=64, bias=True)
    (1): Linear(in_features=64, out_features=16, bias=True)
  )
), 'server': GovernanceNN(
  (relu): LeakyReLU(negative_slope=0.01)
  (decoder): Sequential(
    (0): Linear(in_features=53, out_features=128, bias=True)
    (1): Linear(in_features=128, out_features=64, bias=True)
    (2): Linear(in_features=64, out_features=2, bias=True)
  )
)}
Epoch 0 - Training loss: 0.506868302822113
Epoch 1 - Training loss: 0.4997459352016449
Epoch 2 - Training loss: 0.4940570592880249
Epoch 3 - Training loss: 0.4782547652721405
Epoch 4 - Training loss: 0.4522854685783386
Epoch 5 - Training loss: 0.4221012592315674
Epoch 6 - Training loss: 0.38992562890052795
Epoch 7 - Training loss: 0.3610519766807556
…
