{'digital_domain': DigitalNN(
  (layers_stack): Sequential(
    (0): Linear(in_features=10, out_features=32, bias=True)
    (1): ReLU()
    (2): BatchNorm1d(32, eps=1e-05, momentum=0.1, affine=True, track_running_stats=True)
    (3): Dropout(p=0.3, inplace=False)
    (4): Linear(in_features=32, out_features=16, bias=True)
    (5): ReLU()
  )
), 'retail_domain': RetailNN(
  (layers_stack): Sequential(
    (0): Linear(in_features=10, out_features=32, bias=True)
    (1): ReLU()
    (2): BatchNorm1d(32, eps=1e-05, momentum=0.1, affine=True, track_running_stats=True)
    (3): Dropout(p=0.3, inplace=False)
    (4): Linear(in_features=32, out_features=16, bias=True)
    (5): ReLU()
  )
), 'fraud_prevention_domain': FraudPrevNN(
  (layers_stack): Sequential(
    (0): Linear(in_features=10, out_features=32, bias=True)
    (1): ReLU()
    (2): BatchNorm1d(32, eps=1e-05, momentum=0.1, affine=True, track_running_stats=True)
    (3): Linear(in_features=32, out_features=16, bias=True)
    (4): ReLU()
  )
), 'server': GovernanceNN(
  (layers_stack): Sequential(
    (0): Linear(in_features=48, out_features=32, bias=True)
    (1): ReLU()
    (2): BatchNorm1d(32, eps=1e-05, momentum=0.1, affine=True, track_running_stats=True)
    (3): Linear(in_features=32, out_features=32, bias=True)
    (4): ReLU()
    (5): BatchNorm1d(32, eps=1e-05, momentum=0.1, affine=True, track_running_stats=True)
    (6): Linear(in_features=32, out_features=2, bias=True)
  )
)}
Epoch 0 - Training loss: 0.4814241826534271
Epoch 1 - Training loss: 0.2542918920516968
Epoch 2 - Training loss: 0.12393000721931458
Epoch 3 - Training loss: 0.07043427973985672
Epoch 4 - Training loss: 0.04803396761417389
Epoch 5 - Training loss: 0.036655671894550323
Epoch 6 - Training loss: 0.029666705057024956
Epoch 7 - Training loss: 0.02555745840072632
…
