{'digital_domain': DigitalNN(
  (layers_stack): Sequential(
    (0): Linear(in_features=10, out_features=32, bias=True)
    (1): ReLU()
    (2): BatchNorm1d(32, eps=1e-05, momentum=0.1, affine=True, track_running_stats=True)
    (3): Dropout(p=0.3, inplace=False)
    (4): Linear(in_features=32, out_features=16, bias=True)
    (5): ReLU()
  )
), 'retail_domain': RetailNN(
  (layers_stack): Sequential(
    (0): Linear(in_features=10, out_features=32, bias=True)
    (1): ReLU()
    (2): BatchNorm1d(32, eps=1e-05, momentum=0.1, affine=True, track_running_stats=True)
    (3): Dropout(p=0.3, inplace=False)
    (4): Linear(in_features=32, out_features=16, bias=True)
    (5): ReLU()
  )
), 'fraud_prevention_domain': FraudPrevNN(
  (layers_stack): Sequential(
    (0): Linear(in_features=10, out_features=32, bias=True)
    (1): ReLU()
    (2): BatchNorm1d(32, eps=1e-05, momentum=0.1, affine=True, track_running_stats=True)
    (3): Linear(in_features=32, out_features=16, bias=True)
    (4): ReLU()
  )
), 'server': GovernanceNN(
  (layers_stack): Sequential(
    (0): Linear(in_features=48, out_features=32, bias=True)
    (1): ReLU()
    (2): BatchNorm1d(32, eps=1e-05, momentum=0.1, affine=True, track_running_stats=True)
    (3): Linear(in_features=32, out_features=32, bias=True)
    (4): ReLU()
    (5): BatchNorm1d(32, eps=1e-05, momentum=0.1, affine=True, track_running_stats=True)
  )
), 'label_owner': LabelOwnerNN(
  (out): Linear(in_features=32, out_features=2, bias=True)
)}
Epoch 0 - Training loss: 0.654209554195404
Epoch 1 - Training loss: 0.34311479330062866
Epoch 2 - Training loss: 0.15206921100616455
Epoch 3 - Training loss: 0.08051362633705139
Epoch 4 - Training loss: 0.05404144152998924
Epoch 5 - Training loss: 0.04013703763484955
Epoch 6 - Training loss: 0.03345117345452309
Epoch 7 - Training loss: 0.02787947468459606
…
